data.pth (torch, 892657 bytes, 8 tensors)

l1.weight f4 [303, 243]
0	0x3d52a6d4	0.05142863
1	0x3dc5526d	0.09634862
2	0x3dbe58b8	0.092942655
3	0xbce29ab2	-0.027661655
4	0x3d0b2cf0	0.033978403
5	0x3cf1b4d9	0.02950518
6	0xbd0b2014	-0.03396614
7	0xbd85e435	-0.06537668
8	0x3caafa7e	0.020871397
9	0x3ce4f14a	0.027947087
10	0x3afcc27d	0.0019284036
11	0x3e0f6798	0.14004362
12	0xbbaf274d	-0.005345261
13	0xbca8eb5c	-0.02062004
14	0x3d184706	0.03717711
15	0xbda9ace7	-0.08284932
16	0xbcb9e70d	-0.022693181
17	0xbd6b873d	-0.05750202
18	0xbb17c3a8	-0.0023157392
19	0xbdbbb55f	-0.09165453
20	0xbd98534e	-0.07437764
21	0x3cd8edb7	0.026480539
22	0xbbc2a249	-0.005939756
23	0xbd57022a	-0.0524923
24	0xbd5653c3	-0.052325975
25	0x3c3c5c05	0.011496549
26	0xbd048afb	-0.032359105
27	0xbd78e943	-0.06076933
28	0xbbde3cdf	-0.0067821587
29	0xbd9470ef	-0.07248103
30	0x3df1cc99	0.11806602
31	0xbd5928a6	-0.05301728
32	0xbdce834f	-0.10083639
33	0x3d5ef805	0.05443575
34	0x3d5bb7a9	0.05364195
35	0xbddca78b	-0.10774144
36	0x3d7cdd59	0.06173453
37	0x3db2f593	0.08738246
38	0x3d41b181	0.04728842
39	0x3deb5a05	0.11491779
40	0x3dad874d	0.08473072
41	0x3d6d9737	0.058005538
42	0x3c885c80	0.01664567
43	0x3ba8c4d6	0.005150418
44	0x3bbf868a	0.0058448957
45	0xbdeda936	-0.1160454
46	0x3d8d03a5	0.06885461
47	0x3d91500e	0.07095347
48	0x3d1bd668	0.03804627
49	0xbd43884f	-0.047737416
50	0xbcc5363b	-0.02407371
51	0x3dc28701	0.09498406
52	0x3e379263	0.17926936
53	0x3d31ac09	0.043376956
54	0x3cd50d94	0.026007451
55	0x3d9f2dc6	0.077724025
56	0x3d90c567	0.070689015
57	0x3e3f70b3	0.18695335
58	0xbd76b07a	-0.060226895
59	0x3c177472	0.009244071
60	0xbc5a9a64	-0.013342474
61	0xb9428ed2	-0.00018554486
62	0x3cc6c495	0.02426366
63	0xbda04282	-0.07825185
64	0x3cb10a41	0.021611335
65	0x3d024bfb	0.031810742
66	0x3e2e636f	0.17030118
67	0xbc12bab8	-0.00895565
68	0xbc2635b8	-0.0101446435
69	0xbd17dbd0	-0.037074864
70	0x3decf0aa	0.115693405
71	0x3c880361	0.016603174
72	0x3e1203a8	0.14259207
73	0x3e15dfc8	0.14636147
74	0x3bf94d6c	0.0076081064
75	0x3d5f74ed	0.05455487
76	0x3d2dc63d	0.042425383
77	0x3ba98e54	0.0051744375
78	0xbc4135bf	-0.011792599
79	0x3df61305	0.120153464
80	0x3cb0a292	0.021561895
81	0xbd176528	-0.036961704
82	0x3cdf5848	0.027263775
83	0xbc7c4995	-0.015398403
84	0x3dba7cdf	0.091058485
85	0x3e087923	0.1332746
86	0x3d93f7d1	0.072250016
87	0x3c63a662	0.013894649
88	0xbdd19d73	-0.10235109
89	0xbd983618	-0.074321926
90	0xbd1234f6	-0.03569504
91	0xbdcceb44	-0.10005811
92	0x3ca33cfc	0.01992654
93	0xbd8167d5	-0.063186325
94	0xbe0892b4	-0.13337213
95	0x3cccc1ef	0.024994818
96	0x3d06298a	0.03275446
97	0xbda46432	-0.08026923
98	0x3d874bf7	0.06606286
99	0x3d134e24	0.035963193
100	0xbe00805e	-0.12548968
101	0xbcae8cdf	-0.021307407
102	0x3cb0ea64	0.021596141
103	0xbc861da5	-0.016371557
104	0x3de0f5e8	0.10984403
105	0xbc8a376e	-0.016872134
106	0xbd3d32d2	-0.046191044
107	0xbe177a2f	-0.14792703
108	0x3d6ea4bd	0.058262575
109	0xbdb111fe	-0.0864601
110	0x3dfbe305	0.1229916
111	0xbc07c47a	-0.00828659
112	0x3d4fded6	0.050749622
113	0x3ca67dd4	0.020323671
114	0xbb7d6c35	-0.0038669233
115	0xbd2f1d23	-0.042752396
116	0x3d814aab	0.0631307
117	0xbdbaa6ce	-0.09113847
118	0xbd86f1a4	-0.06589058
119	0x3deb0708	0.114759505
120	0x3d85e1f9	0.065372415
121	0xbd31e5b6	-0.04343196
122	0xbdcba2b9	-0.09943146
123	0x3daec829	0.08534271
124	0xbc9bcaa7	-0.01901753
125	0x3e431f39	0.19054879
126	0xbc5538cc	-0.01301403
127	0xbcc9a89a	-0.024616528
128	0xbd3d8f7c	-0.046279415
129	0xbc935d12	-0.017988715
130	0xbdf70042	-0.12060596
131	0x3d020411	0.03174216
132	0x3d454778	0.04816386
133	0xbd75e6b5	-0.060034472
134	0x3d0129cb	0.031533998
135	0x3a1a1f9a	0.0005879343
136	0x3de04f7e	0.10952662
137	0xbdab0801	-0.08351136
138	0xbd1540a8	-0.036438614
139	0xbcce5588	-0.025187269
140	0xbdcedcb8	-0.101006925
141	0x3d1438b3	0.036186885
142	0xbc9bea34	-0.019032575
143	0x3c0eb9bf	0.0087112775
144	0x3db50212	0.088382855
145	0xbe00bd6d	-0.1257226
146	0x3dae6986	0.08516221
147	0xbdac0545	-0.083994426
148	0x3da6a817	0.08137529
149	0xbcddeab3	-0.027089452
150	0x3da6f496	0.0815212
151	0xbe1aa7a5	-0.15103014
152	0xbdaf8c0e	-0.08571635
153	0x3dbf5270	0.093418956
154	0x3cee918b	0.029122135
155	0x3b617f62	0.0034408201
156	0x3ca30439	0.019899474
157	0x3d192f4c	0.03739862
158	0xbde63794	-0.112410694
159	0x3d9cdea5	0.076596536
160	0x3ba7ba9b	0.0051186807
161	0x3d8ea61e	0.06965278
162	0x3dbcb9b0	0.092151046
163	0xbda9fb32	-0.08299865
164	0x3cf43bab	0.029813608
165	0x3d030f40	0.031996965
166	0xbd9664d8	-0.07343453
167	0x3dc7c738	0.09754795
168	0x3c72d9c6	0.014822429
169	0xbdb2284f	-0.086990945
170	0x3d6afc88	0.05736974
171	0x3ce8fcdf	0.02844089
172	0x3b95d8f3	0.0045729815
173	0x3d6be8ac	0.05759494
174	0x3c7b5b80	0.0153416395
175	0x3de31011	0.11087049
176	0xbdc39b58	-0.09551114
177	0xbdf179fc	-0.11790845
178	0x3cd926ea	0.026507813
179	0x3d0845d1	0.033269707
180	0x3cd2941b	0.025705388
181	0x3dc0a93e	0.094072804
182	0x3d3384ce	0.043827824
183	0x3d4d29af	0.05008858
184	0x3d58b960	0.052911162
185	0x3c662ba9	0.014048495
186	0xbcbed973	-0.023297047
187	0xbd59fb9e	-0.053218476
188	0x3dcbeba2	0.09957053
189	0x3ba0683a	0.0048952373
190	0x3b3ebddf	0.0029104871
191	0x3d6c93ff	0.057758328
192	0xbc32af38	-0.010906033
193	0xbdecdc7c	-0.115654916
194	0x3d3a38b5	0.045464236
195	0x3c45d61c	0.012074973
196	0x3da912a3	0.08255508
197	0x3da46aab	0.08028158
198	0xbe0aeb90	-0.13566422
199	0xbdc4963f	-0.0959897
200	0xbcca2581	-0.024676086
201	0x3db8781b	0.09007283
202	0x3d943cfb	0.072381936
203	0x3d4893be	0.048969023
204	0x3cf07cf9	0.029356467
205	0x3dfcd1fb	0.12344738
206	0x3d61f477	0.05516478
207	0x3d819dfa	0.0632896
208	0x3c8a88df	0.016910968
209	0x39eab8ad	0.00044769552
210	0x3d2a0d09	0.041516338
211	0x3b21230a	0.0024587535
212	0xbc531e47	-0.012885637
213	0xbcbb1295	-0.022836009
214	0xbdd2fdf1	-0.10302342
215	0x3d71ee62	0.05906523
216	0xbd930fb1	-0.07180727
217	0x3d09a2e6	0.033602618
218	0x3dcec793	0.100966595
219	0x3cb55f96	0.022140305
220	0xbdd2a29b	-0.10284921
221	0x3da6f3da	0.0815198
222	0xbdbb93a0	-0.091590166
223	0xbd138943	-0.036019575
224	0x3cbde109	0.023178594
225	0x3d826243	0.06366398
226	0x3cdae853	0.026722109
227	0xbda51281	-0.0806017
228	0x3cb34f25	0.021888325
229	0x3d693cc5	0.05694272
230	0x3a834dff	0.0010017751
231	0x3d4a6c08	0.049419433
232	0xb9ef1461	-0.00045600816
233	0xbcb97ebb	-0.022643438
234	0x3cf185e2	0.029482786
235	0x3dcc67a5	0.09980706
236	0xbc80f98f	-0.015743999
237	0x3bc33632	0.0059573883
238	0x3d3f8c29	0.046764527
239	0x3d6794fc	0.056538567
240	0x3b783ad4	0.0037876861
241	0xbc73c9ca	-0.014879653
242	0xbd9f96d6	-0.077924415
243	0x3c67f4c2	0.014157476
244	0xbd0c8a45	-0.03431155
245	0xbd9f5c58	-0.07781285
246	0x3c6f0224	0.014587913
247	0xbc92437d	-0.017854447
248	0x3d970593	0.0737411
249	0x3cd75115	0.02628378
250	0xbdfd312f	-0.12362897
251	0x3dfce291	0.123479016
252	0x3b0d021c	0.002151615
253	0xbae54de0	-0.0017494522
254	0x3d884f34	0.06655732
255	0x3be21490	0.006899424

l1.bias f4 [303]
0	0x3e21c034	0.15795976
1	0x3e24d8d2	0.16098335
2	0x3e4ad31b	0.19807093
3	0x3df235ce	0.11826669
4	0x3cc25b6f	0.02372524
5	0x3e1b4b26	0.15165386
6	0x3dea7325	0.11447743
7	0x3e2b28b1	0.16714741
8	0x3e29593a	0.16537943
9	0x3dc2f721	0.09519792
10	0x3cea7517	0.028620286
11	0x3dea8c2d	0.11452518
12	0x3df1687f	0.11787509
13	0x3e561584	0.20906645
14	0x3dd3a74a	0.10334642
15	0x3e45304d	0.19256707
16	0x3e521a46	0.20517835
17	0x3e0ff72e	0.14059135
18	0x3e40aed6	0.18816695
19	0x3e3d6bc7	0.18498145
20	0x3e15a991	0.14615466
21	0x3d0ba0bc	0.034088835
22	0x3ddee8a4	0.108842164
23	0x3c91aec0	0.017783523
24	0x3dfe0e5f	0.12405085
25	0x3e528d83	0.20561795
26	0x3e0b767f	0.13619421
27	0x3da978ba	0.0827498
28	0x3da9df10	0.08294499
29	0x3e2e7cce	0.17039797
30	0x3cc8b74f	0.02450147
31	0x3d67a29c	0.05655156
32	0x3db469dc	0.088092536
33	0x3dd738db	0.10508891
34	0x3d3ea981	0.04654837
35	0x3daf06a7	0.08546191
36	0x3e29e572	0.16591433
37	0x3e1504b2	0.14552572
38	0x3e518a3c	0.20462888
39	0x3e3a58a0	0.1819787
40	0x3dd3204d	0.10308895
41	0x3e04c70e	0.12966558
42	0x3e011a3f	0.12607668
43	0x3d5a5e62	0.053312667
44	0x3dfd90cf	0.12381136
45	0x3e0acf15	0.13555558
46	0x3e072046	0.13195905
47	0x3e3ccba2	0.18437055
48	0x3df7e42a	0.12104066
49	0x3e02f3a4	0.12788254
50	0x3e06aec7	0.1315261
51	0x3d4442f7	0.047915425
52	0x3da8be4d	0.08239422
53	0x3e164654	0.14675266
54	0x3e12f533	0.14351349
55	0x3e015d06	0.12633142
56	0x3d022b65	0.031779665
57	0x3dba2350	0.090887666
58	0x3e1100dd	0.14160486
59	0x3e062b26	0.13102397
60	0x3e2c412b	0.16821735
61	0x3de6eec4	0.1127601
62	0x3da2e8d8	0.07954568
63	0x3d1ba8ea	0.038002886
64	0x3e1b01fe	0.15137479
65	0x3e24e5cf	0.1610329
66	0x3e345eae	0.17614242
67	0x3d902dfa	0.07040019
68	0x3d9e5914	0.07731834
69	0x3d269985	0.04067375
70	0x3da19894	0.0789043
71	0x3d97eccc	0.07418212
72	0x3e6e7c7a	0.23289672
73	0x3de5d895	0.1122295
74	0x3dd5eac1	0.104451664
75	0x3de46040	0.11151171
76	0x3e29b673	0.16573505
77	0x3e0d57bd	0.13803001
78	0x3de3e429	0.111275025
79	0x3df73a33	0.120716475
80	0x3dc941a7	0.09826975
81	0x3e304ff9	0.17218007
82	0x3e290854	0.16507083
83	0x3df9e19c	0.12201235
84	0x3dd31524	0.10306767
85	0x3da3e1b9	0.080020376
86	0x3dc43d5c	0.09582016
87	0x3d4756af	0.048666652
88	0x3e14d210	0.14533257
89	0x3e481c64	0.1954208
90	0x3d95956c	0.073038906
91	0x3e39b6a9	0.18136086
92	0x3e4a180d	0.19735737
93	0x3dbd3ac7	0.092397265
94	0x3dcfc4bf	0.10144948
95	0x3e19643e	0.14979646
96	0x3db9def2	0.090757266
97	0x3e2cb6f5	0.16866668
98	0x3c7e42fa	0.015518898
99	0x3e3cefbb	0.18450825
100	0x3dbcc444	0.09217122
101	0x3d8c9d99	0.06865997
102	0x3ddef0e8	0.10885793
103	0x3e1f0c0a	0.15531936
104	0x3da08930	0.078386664
105	0x3e34ae6d	0.17644663
106	0x3d8b9e56	0.068173096
107	0x3e0c08fd	0.13675304
108	0x3d25b7d8	0.04045853
109	0x3e0ef609	0.13961042
110	0xbc6ccd15	-0.014453192
111	0x3e2d3267	0.16913758
112	0x3d8087a6	0.06275873
113	0x3e004828	0.12527525
114	0x3dc7ccc1	0.097558506
115	0x3e3650f2	0.17804316
116	0x3c182af1	0.009287582
117	0x3dc6bdaa	0.09704144
118	0x3e2ca307	0.16859065
119	0x3e389816	0.18026766
120	0x3d9d30e3	0.0767534
121	0x3dd25a4b	0.10271128
122	0x3e2a21f3	0.16614513
123	0x3df12d07	0.117761664
124	0x3d3e1c9b	0.046414
125	0x3e1f7b22	0.15574315
126	0x3e1ddf54	0.15417224
127	0x3dd2be61	0.10290218
128	0x3dd22796	0.10261457
129	0x3d9b252c	0.07575449
130	0x3e0ab704	0.13546377
131	0x3e1eae5c	0.154962
132	0x3d923c31	0.07140387
133	0x3e2fd740	0.17171955
134	0x3dbe2dfc	0.092861146
135	0x3e0db73c	0.1383943
136	0x3e2ef29b	0.17084734
137	0x3debf391	0.11521066
138	0x3e01f06f	0.12689374
139	0x3e1dee06	0.1542283
140	0x3de1c855	0.110245384
141	0x3d964ed4	0.07339254
142	0x3e0eeb63	0.1395698
143	0x3e3cbf00	0.18432236
144	0x3d46a8a3	0.04850067
145	0x3e3c0a2c	0.18363255
146	0x3d7d8bce	0.061900906
147	0x3e3b7721	0.18307163
148	0x3d2ce24e	0.04220801
149	0x3d2f43f7	0.042789426
150	0x3e3f3ee7	0.18676339
151	0x3d17d045	0.037063856
152	0x3d85ef9f	0.06539845
153	0x3db86a7b	0.090046845
154	0x3e19e116	0.1502727
155	0x3d9703a4	0.07373741
156	0x3e06f010	0.13177514
157	0x3dc10b4c	0.09425983
158	0x3e278d97	0.16362606
159	0x3d677d45	0.05651595
160	0x3d3915bf	0.045186754
161	0x3e3665b9	0.17812242
162	0x3d9fad85	0.07796768
163	0x3dc6c09d	0.09704707
164	0x3dfe9aa5	0.1243184
165	0x3e4af21a	0.19818917
166	0x3d402e56	0.04691919
167	0x3de9c744	0.1141496
168	0x3dff32bd	0.124608494
169	0x3d81cb7e	0.06337641
170	0x3d1c57f8	0.03816983
171	0x3e094249	0.13404192
172	0x3d4153d3	0.04719908
173	0x3db0f687	0.08640771
174	0x3dc3eef9	0.09567065
175	0x3d76917d	0.060197342
176	0x3e01dc53	0.12681703
177	0x3e0e815e	0.13916537
178	0x3d8295d4	0.06376234
179	0x3e043ebc	0.12914556
180	0x3d8db702	0.069196716
181	0x3e2646a4	0.16237885
182	0x3d9771d2	0.073947564
183	0x3e13c90d	0.14432164
184	0x3d08eb84	0.03342773
185	0x3e023b52	0.12717941
186	0x3e1870bc	0.14886755
187	0x3e36885b	0.17825453
188	0x3e1ea6a6	0.15493259
189	0x3e01a3d1	0.12660147
190	0x3e042b31	0.12907101
191	0x3df7f4d1	0.12107242
192	0x3d8b1913	0.06791892
193	0x3d99d8ff	0.07512092
194	0x3de5eddc	0.11227009
195	0x3d8c4b48	0.06850296
196	0x3daa4638	0.083141744
197	0x3da31d23	0.07964542
198	0x3e23775b	0.15963499
199	0x3e34d8f6	0.17660889
200	0x3e3260fe	0.17419812
201	0x3e65adca	0.22429577
202	0x3dc1d879	0.09465117
203	0x3dba309d	0.090913035
204	0x3dd202b5	0.102544226
205	0x3da9cd1b	0.08291074
206	0x3d793332	0.06083984
207	0x3e0f1265	0.1397186
208	0x3e4bc4c0	0.19899273
209	0x3e22839d	0.15870519
210	0x3d6b9478	0.057514638
211	0x3d9d65b6	0.076854154
212	0x3e0252e2	0.1272693
213	0x3e4fe5a9	0.20302452
214	0x3df3746f	0.11887442
215	0x3df303fc	0.11865994
216	0x3e15f4ba	0.14644137
217	0x3deaa1c2	0.11456634
218	0x3da4ce82	0.08047201
219	0x3ddbfd59	0.107416816
220	0x3d92a87a	0.071610406
221	0x3d1c2b09	0.03812698
222	0x3c7861b1	0.01516001
223	0x3e0359f8	0.12827289
224	0x3d8e3cf0	0.06945217
225	0x3de1e349	0.11029679
226	0x3d9a4223	0.07532146
227	0x3e26e78f	0.1629927
228	0x3d9b02be	0.075688824
229	0x3da43063	0.080170415
230	0x3da7d615	0.0819513
231	0x3d759e7e	0.059965603
232	0x3e4c9a9e	0.19980857
233	0x3e0c10dc	0.13678306
234	0x3e02938d	0.12751599
235	0x3d84f083	0.064911865
236	0x3dda7a56	0.10667865
237	0x3d824399	0.063605495
238	0x3e1b78c4	0.15182787
239	0x3d3c645a	0.04599414
240	0x3e0c323b	0.13691036
241	0x3e30a49c	0.17250293
242	0x3e0e31b6	0.1388615
243	0x3e22f5c6	0.15914068
244	0x3dadf75c	0.08494446
245	0x3d942cf7	0.07235139
246	0x3d1981a5	0.037477154
247	0x3e18b74f	0.14913677
248	0x3e24e4bf	0.16102885
249	0x3d8e6250	0.06952345
250	0x3df9033a	0.121588185
251	0x3e062b69	0.13102497
252	0x3e2e5ab5	0.1702679
253	0x3d2c7b69	0.04210988
254	0x3e6c9fcb	0.23107831
255	0x3e3716d7	0.17879806

l2.weight f4 [303, 303]
0	0x3e078380	0.13233757
1	0xbaab56d2	-0.0013072139
2	0x3e13b7ae	0.14425537
3	0x3dceb44c	0.10092983
4	0xbdce58e6	-0.1007555
5	0x3d0d4b13	0.034495424
6	0xbcacf6ce	-0.02111378
7	0xbd53fb70	-0.05175346
8	0x3d3eb4d3	0.046559166
9	0x3e6e1639	0.23250665
10	0xbd50b72b	-0.050955933
11	0x3d928c8e	0.07155715
12	0xbdd1c87b	-0.10243317
13	0x3e3a3cb4	0.18187219
14	0x3e2aeb50	0.16691327
15	0xbb9f115c	-0.0048543643
16	0x3e410b5d	0.18851991
17	0x3dc92774	0.09821978
18	0x3c962709	0.01832916
19	0x3d8088c8	0.06276089
20	0x3d614d36	0.055005275
21	0xbe23e030	-0.1600349
22	0x3e0b6232	0.13611677
23	0xbe227226	-0.15863857
24	0xbbaffaea	-0.0053704875
25	0x3e1638e6	0.14670143
26	0xbdf79448	-0.12088829
27	0x3ddc677e	0.10761927
28	0x3d572910	0.052529395
29	0xbd19e310	-0.03757006
30	0xbd82a481	-0.06379033
31	0xbd269c96	-0.040676676
32	0xbd9e9a01	-0.07744218
33	0x3d784a1c	0.06061755
34	0xbd5c1355	-0.053729374
35	0xbe1cdae4	-0.15317875
36	0x3e111e96	0.14171824
37	0x3e4ac26b	0.19800727
38	0x3abb5f06	0.0014295287
39	0xbd083c47	-0.03326061
40	0xbdffbdbe	-0.12487362
41	0x3d5d5c93	0.054043364
42	0x3dcf2e66	0.10116272
43	0x3dea8132	0.11450423
44	0x3dfdf6a9	0.12400562
45	0xbbb86673	-0.0056274473
46	0x3c62af70	0.013835773
47	0xbc97dfbd	-0.018539304
48	0x3ce57c4c	0.02801337
49	0x3e17de67	0.14830934
50	0xbd6b637f	-0.057467934
51	0x3d5cb055	0.0538791
52	0x3c619816	0.01376917
53	0xbd448e9e	-0.047987573
54	0x3dce34f2	0.10068692
55	0xbcfc92e7	-0.030831767
56	0xbe511f28	-0.20422041
57	0x3d43f3fd	0.047840107
58	0x3e321f4b	0.1739475
59	0xbd4865a0	-0.048925042
60	0x3c0684da	0.008210385
61	0xbd22c8df	-0.039742347
62	0xbd9214cf	-0.07132875
63	0xbe44cb75	-0.19218238
64	0xbddd1267	-0.107945256
65	0x3c95cb11	0.018285306
66	0x3c48dd16	0.012259742
67	0x3d1478ae	0.0362479
68	0x3d2e7d9c	0.04260026
69	0x3e233a3f	0.15940188
70	0xbe2c2446	-0.16810712
71	0x3d9e30c3	0.07724144
72	0x3e35e325	0.1776243
73	0x3c748c81	0.014926077
74	0x3d83d233	0.06436577
75	0x3da75e9a	0.08172341
76	0xbbe225d7	-0.0069014835
77	0xbd17ab07	-0.03702834
78	0x3e0b20b7	0.13586698
79	0x3d44a68d	0.048010398
80	0xbd9f55da	-0.07780047
81	0x3e05fb90	0.13084245
82	0x3d65abfc	0.05607222
83	0xbd3f1a8e	-0.046656184
84	0x3e3dea27	0.18546353
85	0xbdb28919	-0.087175556
86	0x3e0e1324	0.13874489
87	0x3be43c39	0.006965187
88	0xbcc016c3	-0.023448354
89	0x3e3984c2	0.1811705
90	0xbc7df6d1	-0.01550074
91	0xbdd316c0	-0.103070736
92	0x3decb95a	0.115587905
93	0xbd294f82	-0.04133559
94	0x3e2cf689	0.1689092
95	0x3dcf4bd2	0.101218835
96	0x3dec4f21	0.1153853
97	0x3d124635	0.035711486
98	0xbe3fb239	-0.1872033
99	0x3d1117fd	0.035423268
100	0x3d9d1799	0.076705165
101	0xbce0f02d	-0.027458275
102	0x3c918099	0.017761515
103	0xbd86655f	-0.06562304
104	0x3cfac9bc	0.030613773
105	0x3e10c2a2	0.14136747
106	0xbdbe43b0	-0.09290254
107	0x3e20e076	0.15710625
108	0xbe13d296	-0.14435801
109	0x3db991d9	0.09061021
110	0xbb8666f9	-0.0041016308
111	0xbc467fad	-0.012115401
112	0xbc8eae56	-0.017417114
113	0xbb9daa48	-0.004811559
114	0xbdc4b9f8	-0.09605783
115	0x3e378976	0.17923531
116	0xbe3eb4d8	-0.18623674
117	0x3d24d156	0.0402387
118	0x3d9d4933	0.07679977
119	0x3cf6bcc1	0.030119302
120	0xbcc92e85	-0.024558315
121	0xbdf1cd77	-0.118067674
122	0x3d6006d5	0.054694016
123	0xbda82bd1	-0.08211482
124	0x3dbc44c9	0.09192807
125	0x3c89af42	0.016807202
126	0x3d03c5b8	0.03217098
127	0x3d54fb1c	0.05199729
128	0x3d4c6140	0.049897432
129	0x3cfe2354	0.031022705
130	0xbc866f6b	-0.01641055
131	0x3d4c1020	0.049820065
132	0xbe03a7a5	-0.1285692
133	0x3bb4e05c	0.00551991
134	0xbdb176bc	-0.08665225
135	0x3dd8e134	0.10589829
136	0x3daf01c4	0.08545259
137	0x3d9c4d60	0.076319456
138	0xbccbdb68	-0.024884894
139	0xbdb70d07	-0.08938032
140	0x3d23d774	0.040000394
141	0xbda9daf9	-0.08293719
142	0xbe0364e7	-0.1283146
143	0x3d95f7e1	0.0732267
144	0xbcde3f65	-0.027129838
145	0x3c197e72	0.009368526
146	0x3dc73367	0.09726601
147	0x3d7d4fb4	0.06184359
148	0xbd5b86f2	-0.05359549
149	0xbdd3f692	-0.10349764
150	0x3dafd62e	0.085857734
151	0x3cdbfb00	0.026853085
152	0xbd3cce3d	-0.04609512
153	0x3cd15d4b	0.02555718
154	0xbc166212	-0.009178655
155	0xbdd318d6	-0.103074715
156	0x3d32bc2f	0.043636497
157	0xbdb98386	-0.09058289
158	0xbd2f9873	-0.042869996
159	0xbdf29031	-0.118439086
160	0x3db18075	0.08667079
161	0x3e246346	0.16053495
162	0xbdf72abe	-0.12068699
163	0x3da01a3c	0.07817504
164	0x3e289ffe	0.16467282
165	0x3e23286b	0.15933387
166	0x3dbdbbdd	0.09264348
167	0x3d9e8b1f	0.07741379
168	0x3bcabb9c	0.0061869156
169	0xbd05b137	-0.03263971
170	0xbe672500	-0.22572708
171	0x3d293f26	0.04131999
172	0xbe363c0b	-0.17796342
173	0xbdf492b5	-0.11942045
174	0xbbf7b7cc	-0.007559752
175	0xbcd1ebd3	-0.025625145
176	0xbdc8b558	-0.098002136
177	0xbd78da76	-0.060755216
178	0xbdfedf2c	-0.124449104
179	0xbda2811b	-0.07934781
180	0x3deba1ce	0.11505471
181	0x3d6e2688	0.058142215
182	0xbd90a624	-0.07062939
183	0x3db33765	0.087508
184	0xbe341fd0	-0.1759026
185	0x3db13804	0.08653262
186	0x3e13dcb7	0.14439665
187	0x3e115301	0.1419182
188	0x3dd001a9	0.10156567
189	0x3d8c47a9	0.068496056
190	0x3df2ef9f	0.1186211
191	0x3e1a19d8	0.15048921
192	0xbcdd936c	-0.027047835
193	0x3cd4e1fa	0.02598666
194	0x3d9c4acf	0.07631456
195	0xbe45127d	-0.19245334
196	0x3db554ff	0.08854102
197	0xbbc71d58	-0.006076496
198	0xbd7fa662	-0.062414534
199	0x3e1c6e97	0.15276562
200	0xbcb53e74	-0.022124507
201	0x3e226f0a	0.1586267
202	0x3d084c95	0.03327616
203	0x3d8bacc5	0.068200625
204	0x3df3d84c	0.1190649
205	0x3e522d9f	0.20525216
206	0xbd8e6bc1	-0.06954146
207	0xbc446a73	-0.01198827
208	0x3d95c10b	0.07312211
209	0x3e5513ea	0.20808378
210	0x3b66bc9f	0.0035207642
211	0xbd27b15c	-0.040940627
212	0xbd433ba4	-0.0476643
213	0x3e33378d	0.1750166
214	0x3d9c90c0	0.07644796
215	0x3cf21813	0.029552495
216	0xbdac71ab	-0.08420118
217	0x3e1ae392	0.15125874
218	0xbcb08bbd	-0.021551007
219	0x3ddc4122	0.107546106
220	0xbdda9d14	-0.106744915
221	0xbd5f04e3	-0.05444802
222	0x3bb8c036	0.0056381477
223	0x3c20bf57	0.009811244
224	0xbe25f3cd	-0.16206284
225	0x3d9e0189	0.077151366
226	0xbdae4650	-0.08509505
227	0x3e2b6b7b	0.1674022
228	0x3cb71552	0.022349034
229	0x3daf503a	0.08560224
230	0xbda604db	-0.08106395
231	0x3e1770e6	0.14789161
232	0x3dd0e0af	0.10199105
233	0x3df66d2c	0.12032542
234	0x3db9e4c5	0.090768375
235	0x3dfbd16a	0.12295802
236	0xbda43536	-0.08017962
237	0x3d11d753	0.03560574
238	0x3cc20ab9	0.023686754
239	0xbd497989	-0.04918817
240	0xbd17b2a2	-0.037035592
241	0x3b1727ab	0.0023064415
242	0x3dab4d2c	0.08364329
243	0x3e166203	0.14685826
244	0x3dac4f25	0.08413533
245	0xbdd07851	-0.101791985
246	0xbd90dcd3	-0.07073369
247	0x3e205953	0.15659074
248	0x3e03a2f6	0.12855133
249	0xbd2adb22	-0.041712888
250	0x3bd3207c	0.0064430814
251	0x3e28dab2	0.16489676
252	0x3dae4d70	0.08510864
253	0xbdabf07b	-0.083954774
254	0xbcd8938c	-0.026437543
255	0x3d5b3e1a	0.05352602

l2.bias f4 [303]
0	0x3d95e7aa	0.07319577
1	0xbc1f4e94	-0.009723324
2	0x3d32f5c1	0.0436914
3	0x3d8b92d5	0.06815115
4	0x3d4cd7b3	0.050010394
5	0x3be91bfd	0.007113932
6	0xbd26dc47	-0.040737417
7	0xbda7b370	-0.08188522
8	0xbd956f1a	-0.072965816
9	0xbc1e88a8	-0.009676136
10	0xbc833197	-0.016014857
11	0xbd431a49	-0.04763249
12	0x3d2a66ac	0.04160182
13	0x3ba71611	0.005099066
14	0xbd524bf7	-0.051341977
15	0x3ccd63ca	0.025071997
16	0xbd24f373	-0.040271234
17	0x3c8f5340	0.017495751
18	0xbbf4d32b	-0.0074714622
19	0xbd4a2490	-0.049351275
20	0x3d8ff501	0.07029153
21	0x3c2e2424	0.010628734
22	0xbcb4c12a	-0.022064764
23	0x3d935a05	0.07194904
24	0xbb51ec28	-0.003203163
25	0x3d80401e	0.062622294
26	0xbb90aba5	-0.004414993
27	0x3db5cac8	0.08876568
28	0x3d76cf72	0.06025643
29	0xba993abb	-0.0011690477
30	0xbd36988a	-0.044579066
31	0xbc789497	-0.015172145
32	0xbadea030	-0.0016984995
33	0x3c4bf72f	0.01244907
34	0x3d99068c	0.07471952
35	0x3d3386cc	0.043829724
36	0xbd9ca04c	-0.07647762
37	0xbce9585b	-0.028484514
38	0x3c212ece	0.009837819
39	0xbd8b7a10	-0.06810391
40	0x3cf9cc80	0.030493021
41	0xbd2cdda4	-0.04220356
42	0x3b7c3d38	0.0038488638
43	0xbd569c4f	-0.05239516
44	0x3c86a52b	0.01643618
45	0xbd1797d6	-0.037010036
46	0x3d0d7411	0.034534518
47	0xbd6a6b08	-0.05723098
48	0xbd47b5a5	-0.048757214
49	0xbd1f0b92	-0.038829394
50	0x3ce2480b	0.027622243
51	0xbcc78bed	-0.024358714
52	0xbd6fe684	-0.058569446
53	0x3d860066	0.06543045
54	0xbd0b1836	-0.033958636
55	0x3d398756	0.045295082
56	0xbc6b54ea	-0.014363507
57	0x3d681f00	0.05667019
58	0x3d84bdfe	0.06481551
59	0x3c7ff284	0.015621785
60	0xbd43639d	-0.04770242
61	0x3abf0178	0.0014572581
62	0x3c88d239	0.016701804
63	0xbab52ed0	-0.0013823155
64	0xbc87ab74	-0.016561247
65	0x3ca6aac3	0.020345097
66	0x3bb912dd	0.0056480006
67	0x3d304992	0.043038912
68	0x3cd90b54	0.02649466
69	0xbd0f9fc3	-0.03506447
70	0xbc021077	-0.007938496
71	0xbc7e6b1c	-0.015528467
72	0xbd01c938	-0.031686038
73	0x3c34d26f	0.011036499
74	0x3dac54c5	0.08414606
75	0x3ceeb486	0.029138815
76	0xbcc44ada	-0.023961473
77	0x3cffd6ae	0.031230297
78	0x3d97c810	0.07411206
79	0x3d23f8ea	0.040032305
80	0x3c4fb671	0.012677775
81	0x3d54e8f9	0.051979993
82	0x3d79e57b	0.061009865
83	0xbc99fcaa	-0.018797237
84	0xbd58a5a4	-0.052892342
85	0x3c6bad84	0.014384631
86	0x3daa20f8	0.083070695
87	0x3d3423af	0.043979343
88	0x3cb0c39e	0.021577653
89	0x3e1092e1	0.1411853
90	0x3d3dc020	0.046325803
91	0xbbe4d476	-0.006983335
92	0x3d93c737	0.072157316
93	0x3d21b87c	0.03948258
94	0xbceee3b9	-0.029161321
95	0x3d787ed0	0.060667813
96	0x3d01891e	0.031624906
97	0xbd1445e9	-0.036199484
98	0xbd1f9344	-0.038958803
99	0xbd530a3c	-0.051523432
100	0xbd790b8d	-0.06080203
101	0xbd79f252	-0.06102211
102	0xbca525f6	-0.020159703
103	0x3d04635d	0.032321323
104	0x3cea52f8	0.028604016
105	0x3c5ed12c	0.013599675
106	0x3d3feb21	0.046855096
107	0x3c4aa719	0.012368941
108	0xbd51997a	-0.051171757
109	0xbd332eab	-0.043745678
110	0xbc7c43f0	-0.015397057
111	0x3c880676	0.016604643
112	0x3dcf8198	0.1013214
113	0x3cff3e48	0.031157628
114	0x3bc737d9	0.0060796556
115	0x39a1f30e	0.00030889403
116	0x3ce8258a	0.028338213
117	0x3d473ec3	0.04864384
118	0xbc9c2914	-0.019062556
119	0xbccf9a46	-0.025342118
120	0x3d7b026b	0.061281603
121	0xbcea733a	-0.028619397
122	0xbd116f08	-0.03550628
123	0xbd42b99c	-0.047540292
124	0x3d691948	0.056908876
125	0xbd76bc6e	-0.060238294
126	0x3d97c60f	0.074108236
127	0xbc80d007	-0.015724195
128	0x3d24a2ff	0.040194508
129	0x3c3c594d	0.0114959
130	0xbba29e3b	-0.00496271
131	0x3d164442	0.03668619
132	0x3c09abdf	0.008402794
133	0xbc90d241	-0.017678382
134	0xbd3f5e5a	-0.04672084
135	0x3c168d76	0.009189
136	0xbcf3336e	-0.02968761
137	0x3ca8393c	0.020535104
138	0xbd7751b2	-0.060380645
139	0x3d3463a6	0.044040345
140	0x3d05a656	0.032629333
141	0x3d1692f4	0.03676124
142	0x3bc8a40f	0.006123073
143	0xbc996399	-0.01872425
144	0x3d362ba8	0.044475228
145	0xbd8ac34c	-0.06775531
146	0x3d3e275f	0.046424266
147	0xbdc659cc	-0.09685096
148	0xbcf62611	-0.030047448
149	0x3d015c81	0.03158236
150	0x3c16f535	0.009213735
151	0x3d1dd09f	0.038529035
152	0xbd748f89	-0.0597072
153	0xbd10f6f1	-0.03539175
154	0x3c99fe3d	0.018797988
155	0xbcad3d8c	-0.021147512
156	0x3ca38963	0.019962972
157	0xbc6026e6	-0.013681149
158	0xbbafc9e0	-0.0053646415
159	0x3dc5625b	0.096379004
160	0xbd33e845	-0.04392268
161	0xbd41ffc6	-0.047363065
162	0x3d658bf3	0.05604167
163	0x3d98503d	0.07437179
164	0xbda21080	-0.079133034
165	0xbbd53b4a	-0.006507312
166	0xbd4dcf0c	-0.050246283
167	0x3c9e1144	0.019295342
168	0xbc6a6e6b	-0.014308552
169	0x3d593bba	0.053035475
170	0x3d50a63c	0.050939783
171	0x3d8b78cd	0.0681015
172	0xbd1fc178	-0.039002866
173	0xbd232cba	-0.039837576
174	0x3d82a7c1	0.06379653
175	0xbd6b7a8d	-0.05748992
176	0x3b74e922	0.0037370403
177	0xbad6657d	-0.001635715
178	0x3c0a98a6	0.008459246
179	0xbd513723	-0.051077973
180	0xbd247405	-0.040149707
181	0xbce8a1df	-0.028397499
182	0x3c315d03	0.010825398
183	0xbcbd6899	-0.023121165
184	0xbcdef93e	-0.027218457
185	0xbd781a16	-0.060571752
186	0x3dcfe968	0.101519406
187	0xbd08a868	-0.03336373
188	0x3cee22f7	0.029069407
189	0x3d912de2	0.070888296
190	0x3bacfa72	0.005278879
191	0xbc9426ad	-0.018084848
192	0x3d84afc6	0.064788386
193	0x3c66d34d	0.014088464
194	0xbb0440f7	-0.0020180324
195	0x3c53b5ee	0.012921793
196	0x3d25058b	0.04028849
197	0xbd568efb	-0.05238245
198	0x3d3d9e6c	0.04629366
199	0x3de9ec5a	0.114220336
200	0xbca8667c	-0.02055668
201	0x3c845520	0.016153872
202	0xbce8ccc0	-0.028417945
203	0xbcd41c69	-0.025892453
204	0x3cff168a	0.031138677
205	0x3c62e577	0.013848654
206	0x3d909621	0.07059885
207	0x3d96a927	0.07356482
208	0x3c4f7796	0.012662789
209	0x3d2488f7	0.040169682
210	0x3c1b58dc	0.009481635
211	0x3cbfd0f3	0.023415064
212	0x3d313277	0.043261018
213	0xbc911b0f	-0.017713098
214	0x3d234daf	0.039869007
215	0xbd117319	-0.035510156
216	0x3cd720d1	0.026260765
217	0xbb23207f	-0.0024891195
218	0x3d809992	0.06279291
219	0xbd14a0ec	-0.03628628
220	0x3d3ba423	0.04581083
221	0x382fb595	4.1892363e-05
222	0xbd5eec6f	-0.0544247
223	0x3ce9904d	0.02851119
224	0x3d350eec	0.044203684
225	0x3d3eded6	0.04659923
226	0x3b9dfe76	0.004821594
227	0xbc2ed4b2	-0.010670828
228	0x3bace1b6	0.0052759303
229	0x3daa8718	0.08326548
230	0x3d039054	0.032120064
231	0x3d432d1f	0.047650453
232	0x3d69be71	0.057066385
233	0x3c839f83	0.016067272
234	0x3d499e3f	0.04922318
235	0x3d90f209	0.070774145
236	0x3c9a7bac	0.0188578
237	0x3cb06a38	0.021535024
238	0x3da52de8	0.080653965
239	0x3d4236ce	0.047415547
240	0xbd6ae999	-0.057351682
241	0x3ce504eb	0.027956447
242	0xbc0d2b94	-0.008616347
243	0x3c716517	0.014733574
244	0xbcfa029d	-0.030518824
245	0x3cc33c2c	0.023832403
246	0x3d329428	0.043598324
247	0xbc2814c1	-0.010258854
248	0x3dd7e2db	0.10541316
249	0xbcbf69ea	-0.023365933
250	0x3d344fff	0.044021603
251	0x3d1e7e2e	0.038694553
252	0xbd19e4f6	-0.03757187
253	0xbd0078ca	-0.031365193
254	0x3d3f0530	0.046635807
255	0x3d17105e	0.036880843

l3.weight f4 [151, 303]
0	0xbe0b3d8d	-0.13597699
1	0x3dbc9e64	0.09209898
2	0x3c9fa2e8	0.01948686
3	0xbd623f4b	-0.055236142
4	0x3d648ce2	0.05579842
5	0x3d5bd165	0.05366649
6	0x3da21ad2	0.07915272
7	0x3d4d897c	0.050179943
8	0x3d9a0e42	0.07522251
9	0xbdf88690	-0.12135041
10	0x3d5c4eec	0.053786203
11	0x3d269853	0.04067261
12	0x3cae508e	0.021278646
13	0xbdc6ed86	-0.09713273
14	0x3d61ec72	0.055157132
15	0x3dcc7af2	0.099843875
16	0x3d019648	0.03163746
17	0x3c0305e5	0.007997011
18	0xbd471fb2	-0.04861421
19	0xbcbd6f06	-0.02312423
20	0xbdc854c0	-0.0978179
21	0xbd6688a8	-0.05628267
22	0x3d735ec0	0.059416533
23	0x3dd58ce8	0.10427266
24	0xbd0821af	-0.03323525
25	0xbd0a6780	-0.03379011
26	0xba69e4eb	-0.0008922356
27	0xbdd415eb	-0.10355743
28	0xbd197004	-0.037460342
29	0x3cf90e32	0.030402277
30	0x3d073c7c	0.033016667
31	0x3ce2094b	0.027592322
32	0x3dbc3749	0.09190232
33	0x3d15d3eb	0.036579054
34	0xbc524b7c	-0.01283538
35	0x3d0653bf	0.03279471
36	0x3dc3ba03	0.09556963
37	0x3dc23875	0.094834246
38	0xbd5ce06c	-0.053924963
39	0xbc38fae2	-0.011290284
40	0xbcb0dc2e	-0.021589365
41	0xbb8d81a6	-0.004318434
42	0x3d09d63f	0.033651587
43	0x3df7a4a7	0.12091952
44	0x3d89fd1f	0.06737732
45	0x3dd0bba4	0.101920396
46	0x3c0079bd	0.007841525
47	0x3d4e37a7	0.050346043
48	0x3d2e52e6	0.042559527
49	0x3d0e31fa	0.03471563
50	0xbcfadfa9	-0.030624228
51	0x3c57829b	0.013153697
52	0xbcd0facb	-0.025510212
53	0x3d0ff3b5	0.035144527
54	0xbd47209a	-0.048615076
55	0x3de4362b	0.11143144
56	0x3e0f8d35	0.1401871
57	0x3d66c6e2	0.056342013
58	0xbc8383dd	-0.016054088
59	0xbda0e4e1	-0.07856155
60	0x3d1484b3	0.036259364
61	0x3d160286	0.0366235
62	0x3e2641a1	0.16235973
63	0x3e1bdf36	0.15221867
64	0x3d3998f8	0.045311898
65	0xbd76ff76	-0.06030222
66	0xbc929231	-0.017891975
67	0xbcda3a7a	-0.026639212
68	0xbd2587ba	-0.040412642
69	0x3db02bce	0.08602105
70	0xbc1657dc	-0.009176221
71	0x3c918ba7	0.017766787
72	0x3d9ecf1e	0.07754348
73	0x3d3b54de	0.045735233
74	0x3c178d89	0.009250053
75	0x3e129fdb	0.14318793
76	0x3c8fe6f2	0.017566178
77	0xbbf9f435	-0.0076279887
78	0xbd2dc259	-0.042421672
79	0x3b84a008	0.0040473975
80	0x3dbd1f67	0.09234505
81	0x3cbafaa3	0.022824591
82	0xbe06aec0	-0.131526
83	0x3ac4ce00	0.0015015006
84	0x3d0cf76f	0.03441566
85	0x3d36c7ba	0.044624068
86	0xbe11ffe8	-0.14257777
87	0x3d085764	0.033286467
88	0x3db0eaaf	0.08638512
89	0xbdbc4613	-0.09193053
90	0xbd62ff87	-0.05541947
91	0xbdd60543	-0.10450222
92	0x3da50af7	0.08058732
93	0xbdf95eb3	-0.121762656
94	0x3d86ec97	0.06588095
95	0x3dac8988	0.084246695
96	0x3d63b938	0.05559656
97	0xbe134346	-0.14381132
98	0x3d4871c6	0.048936628
99	0xbdd9a1cb	-0.10626563
100	0xbd813a96	-0.063100025
101	0x3d97ab2b	0.074056946
102	0x3cef2dad	0.029196585
103	0xbdd6731a	-0.10471173
104	0x3d05df7f	0.032683846
105	0xbd03231c	-0.032015905
106	0x3dc56e62	0.096401945
107	0x3de05aef	0.10954844
108	0x3c9c1c13	0.019056356
109	0x3d01a8eb	0.031655233
110	0x3a80bbf5	0.000982164
111	0xbccf3b9e	-0.025296982
112	0xbd603bc7	-0.054744508
113	0xbdd028b2	-0.10164012
114	0x3cc7bda0	0.024382412
115	0x3d69b28c	0.05705504
116	0xbd6fada1	-0.058515195
117	0xbd861a53	-0.0654799
118	0x3d50b30f	0.050952014
119	0x3dded862	0.108811155
120	0xbd61ff9b	-0.055175405
121	0x3cb4ccf2	0.022070382
122	0xbd1ef407	-0.03880694
123	0x3d61c14e	0.05511599
124	0xbd32baa0	-0.04363501
125	0xbbe17b2d	-0.006881139
126	0xbd87ed00	-0.06637001
127	0x3aa73a35	0.0012758436
128	0xbdb8ddad	-0.09026656
129	0x3cde9848	0.027172223
130	0x3d25712b	0.04039113
131	0x3dfa9e12	0.12237181
132	0x3bc9e191	0.006160923
133	0x3c5d95f3	0.01352452
134	0xbd6b6bff	-0.05747604
135	0x3d6f28b7	0.058388438
136	0x3d00ff01	0.03149319
137	0x3d5e23db	0.054233413
138	0xbceaa1a7	-0.028641535
139	0xbdacdab5	-0.084401526
140	0x3d059298	0.032610506
141	0x3dcd2fb5	0.10018865
142	0x3b14fcbb	0.0022733647
143	0x3dcac04e	0.098999605
144	0xbd70313e	-0.05864071
145	0x3ca1a264	0.019730754
146	0x3c83ba73	0.016080117
147	0x3cf26ffa	0.02959441
148	0x3da8cd94	0.08242336
149	0xbd8ba992	-0.06819452
150	0x3d3e67c2	0.04648567
151	0x3b444a16	0.0029951385
152	0xbcfa341f	-0.030542431
153	0x3cdaf6e0	0.026729047
154	0x3db319e4	0.087451726
155	0xbd4c698c	-0.049905345
156	0x3d31a6db	0.043372016
157	0xbd0d39be	-0.034478895
158	0x3dc39c7f	0.09551334
159	0xbdc3959d	-0.09550021
160	0xbd3d045b	-0.04614673
161	0x3c47d321	0.012196333
162	0xbdbfd5af	-0.09366929
163	0x3d39dd04	0.045376793
164	0x3d67bd46	0.05657699
165	0xbdff3a67	-0.12462311
166	0xbcadb23f	-0.021203158
167	0xbdbae15a	-0.09125014
168	0x3c633ac1	0.0138689885
169	0x3d0791e1	0.033098105
170	0x3db40cdd	0.08791516
171	0xbd265a1d	-0.040613282
172	0xbdefaa1f	-0.1170237
173	0xbc6614a5	-0.014043008
174	0x3cb9d9e8	0.022686914
175	0xbd43b4c7	-0.047779825
176	0x3db67602	0.08909227
177	0x3d473f7c	0.048644528
178	0xbc9b5dfd	-0.018965716
179	0x3d829242	0.06375553
180	0xbd1f5ef1	-0.038908903
181	0x3bc6b877	0.0060644704
182	0x3de678ae	0.112534866
183	0xbd7aa33b	-0.061190825
184	0xbc847e77	-0.016173584
185	0xbb1d0004	-0.0023956308
186	0xbcc3ec63	-0.023916429
187	0xbdc6b225	-0.09701947
188	0x3da5688d	0.08076582
189	0xbe1a6348	-0.15076935
190	0x3d325b41	0.043544058
191	0x3d04fb2a	0.03246609
192	0x3d80f20f	0.06296169
193	0xbe2693cf	-0.16267322
194	0x3d093f8c	0.03350787
195	0x3e08adb6	0.13347515
196	0x3b3defba	0.0028982
197	0xbcd54705	-0.026034841
198	0xbca7fa47	-0.020505084
199	0xbd239838	-0.03994009
200	0x3c6c3fae	0.014419479
201	0x3d4fced0	0.05073434
202	0xbd7bda41	-0.06148744
203	0x3dd4316e	0.103609905
204	0xbca7ff1f	-0.020507393
205	0xbd83c46c	-0.06433949
206	0x3c74d68b	0.014943729
207	0xbdc9cd3b	-0.09853598
208	0x3cac68c9	0.02104606
209	0x3cd405a8	0.025881603
210	0xbc7e9ca9	-0.01554028
211	0x3d42d951	0.04757053
212	0xbd8a62b8	-0.0675711
213	0x3ccb7dfb	0.024840346
214	0x3dcba6b3	0.09943905
215	0x3d9cf076	0.07663052
216	0x3c8934e1	0.016748847
217	0x3e06a9c7	0.13150702
218	0xbd9406b3	-0.0722784
219	0x3c9e8316	0.019349616
220	0x3d226749	0.03964928
221	0xbc37c40e	-0.011216177
222	0x3c7013b8	0.014653139
223	0x3d8ba6a2	0.06818892
224	0xbd6549d7	-0.055978622
225	0x3e0ea603	0.13930516
226	0xbd90b7c0	-0.070662975
227	0x3c24bb1c	0.010054376
228	0xbd66bca2	-0.056332238
229	0xbd9bcccb	-0.076074205
230	0x3bb91106	0.0056477813
231	0xbc619c36	-0.013770154
232	0xbe0bfa68	-0.13669741
233	0x3d91e0d4	0.07122961
234	0xbd7d0cab	-0.06177966
235	0xbccc8bc3	-0.024968987
236	0x3d659d91	0.05605847
237	0xbd666908	-0.05625251
238	0x39c6944d	0.00037875996
239	0xbdb99b82	-0.09062864
240	0xbd39a720	-0.0453254
241	0x3d50f477	0.05101439
242	0xbd19288b	-0.03739218
243	0x3d9635f2	0.07334508
244	0x3dac0a5c	0.084004134
245	0x3d15c266	0.036562346
246	0xbd182e20	-0.037153363
247	0x3d3b8386	0.045779727
248	0xbd91da91	-0.07121766
249	0x3dac5c2d	0.08416019
250	0x3d06c93f	0.032906767
251	0x3d7d4ed6	0.061842762
252	0x3c8250d7	0.015907688
253	0x3d453b2d	0.048152138
254	0x3dc557fc	0.09635922
255	0x3c930173	0.017945027

l3.bias f4 [151]
0	0x3c71c9d7	0.014757595
1	0x3d8f209e	0.06988643
2	0xbde31e35	-0.11089746
3	0xbaab0589	-0.0013047914
4	0xbc91ec4f	-0.017812876
5	0x3c95b90d	0.018276716
6	0xbc122820	-0.008920699
7	0xbb51af87	-0.0031995492
8	0x3cf0ff69	0.029418664
9	0xbce17f6c	-0.02752658
10	0x3d82ffbe	0.06396435
11	0xbcef0f9d	-0.02918225
12	0x3cb944a7	0.022615744
13	0xbd0ba8fe	-0.03409671
14	0x3b11cdda	0.0022247941
15	0x3ca16781	0.019702675
16	0xbcc0b6fb	-0.023524752
17	0xbd8b3aab	-0.067982994
18	0xbcdcd3ca	-0.026956458
19	0x3b233dd4	0.0024908679
20	0xbb508e13	-0.0031822964
21	0x3c4731c6	0.012157863
22	0xbd4d12be	-0.050066702
23	0x3d38d680	0.04512644
24	0xbc9d4548	-0.019198075
25	0xbd7fd07f	-0.062454697
26	0x3c0c29a9	0.008554854
27	0x3cd9b3cf	0.026574997
28	0xbd16afd4	-0.036788777
29	0xbd3a20f7	-0.045441594
30	0xbd555ff3	-0.052093457
31	0xbcdf547a	-0.027261961
32	0xbd533491	-0.051563803
33	0xbd751c13	-0.059841227
34	0xbc3a2239	-0.011360698
35	0x3d24f298	0.040270418
36	0x3bd5fd8a	0.0065304684
37	0xbcb999c2	-0.022656325
38	0xbd46522c	-0.04841821
39	0xbd87c5da	-0.06629534
40	0x3c29c732	0.010362433
41	0xbd38836d	-0.045047212
42	0x3d1a29c9	0.037637506
43	0xbd1c050e	-0.038090758
44	0xbd3065f9	-0.043066
45	0xbc299119	-0.010349535
46	0xbd30d625	-0.043172974
47	0xbc92f6fe	-0.01794004
48	0xbd561bd2	-0.052272625
49	0x3bc8dae6	0.0061296104
50	0xbc9bbd6f	-0.019011227
51	0xbd216eb3	-0.03941221
52	0xbd21e039	-0.039520476
53	0xb993e50e	-0.00028208684
54	0xbd672453	-0.056431126
55	0xbd6c49ff	-0.057687756
56	0xbd1d60ed	-0.038422514
57	0x3bd0b0df	0.006368741
58	0xbd762856	-0.06009706
59	0xbd92928f	-0.0715686
60	0xbd52a9af	-0.051431354
61	0xbb06dd3d	-0.0020578646
62	0xbd43376f	-0.047660287
63	0xbd7913f7	-0.060810056
64	0x3d215137	0.039384093
65	0xbd65d442	-0.056110628
66	0xbb83b3a2	-0.0040192166
67	0xbbd7376a	-0.006567885
68	0x39e5a6bf	0.0004380252
69	0xbc8451fb	-0.016152373
70	0xbd0b71f7	-0.034044232
71	0x3d5480af	0.051880535
72	0x3ab38c25	0.0013698383
73	0xbc54f31a	-0.012997413
74	0xbd4ab699	-0.049490545
75	0x3c36d4e8	0.011159159
76	0xbb2cfb39	-0.0026394858
77	0x3d2faeb5	0.042891223
78	0x3c7abf2b	0.015304367
79	0x3caaa3e4	0.020830102
80	0x3f644d8c	0.8918083
81	0x3d52a44a	0.05142621
82	0xbd35dc43	-0.04439951
83	0x3cdf5842	0.027263764
84	0xbd785134	-0.060624316
85	0x3d27899b	0.040902715
86	0x3c828391	0.015931876
87	0x3cdc5810	0.02689746
88	0xbd24adca	-0.0402048
89	0x3be816ca	0.007082795
90	0xbb49a17e	-0.0030766423
91	0x3d4c5651	0.049887005
92	0x3be89179	0.00709742
93	0x3cbcefa0	0.02306348
94	0x3c86c0bd	0.016449327
95	0x3cc2f963	0.023800557
96	0xbd365d5a	-0.04452262
97	0x3c84d5a9	0.016215162
98	0xbd288d4e	-0.041150384
99	0x3d113a48	0.035455972
100	0xbc680522	-0.01416138
101	0x3cf104a6	0.029421162
102	0xbc8bd5e9	-0.017069774
103	0x3cdf81e5	0.027283618
104	0xbd04df21	-0.032439355
105	0xbd0c892f	-0.034310516
106	0x3c1505b8	0.009095602
107	0xbd3b4e33	-0.045728873
108	0x3c42b549	0.011884042
109	0xbd6e1df9	-0.058134053
110	0x3deca7ef	0.11555468
111	0xbc93395c	-0.017971687
112	0xbcef2249	-0.029191153
113	0x3d106dd8	0.035261005
114	0x3cb9855f	0.022646604
115	0xbd96d2d5	-0.07364432
116	0xbd0d3d50	-0.0344823
117	0xbd581e81	-0.052763466
118	0x3c367fac	0.011138838
119	0x3b18296e	0.0023218053
120	0x3d653046	0.05595424
121	0x3d3b6d2c	0.04575841
122	0x3c87cd2e	0.01657733
123	0x3d1ae311	0.037814204
124	0xbda5ceb5	-0.08096067
125	0x3a9a3a07	0.0011766561
126	0x3d4ec3b9	0.050479624
127	0x3b50c1c7	0.0031853782
128	0xbcc30b8f	-0.023809223
129	0xbc35cca0	-0.01109615
130	0xbc7e8b70	-0.015536174
131	0xbce6c5c7	-0.02817048
132	0xbc9f429f	-0.019440947
133	0x3d4e4039	0.050354216
134	0xbd530bec	-0.05152504
135	0x3d2ecad6	0.04267391
136	0x3cf4d73e	0.029887792
137	0xbd286d3b	-0.041119795
138	0xbda5cbeb	-0.08095535
139	0xbd085582	-0.03328467
140	0xbc4beae9	-0.012446144
141	0xbd8dcbc5	-0.069236316
142	0x3c9b9521	0.018992009
143	0x3a03a97c	0.00050225086
144	0xbd272fd3	-0.040817093
145	0xbd84423d	-0.064579464
146	0xbd0ae497	-0.033909407
147	0x3bbbbc5c	0.0057292413
148	0x3d751aac	0.05983989
149	0xbd662571	-0.05618805
150	0x3d5fde4b	0.054655354

l4.weight f4 [62, 151]
0	0xbe001053	-0.12506227
1	0xbdca9288	-0.0989123
2	0xbd8673f1	-0.06565083
3	0x3d0dc2ec	0.03460972
4	0x3dabcb65	0.08388404
5	0xbd8989e9	-0.067157574
6	0xbc2aadbc	-0.010417398
7	0x3d952cea	0.07283957
8	0x3c9e014b	0.019287726
9	0xbe226557	-0.1585897
10	0x3dd921c6	0.10602145
11	0xbc0ba4f8	-0.008523218
12	0x3cb59707	0.022166742
13	0xbe0ada38	-0.13559806
14	0x385cf3d1	5.267916e-05
15	0xbd72dcd6	-0.059292637
16	0xbe130371	-0.14356782
17	0x3da4640e	0.080268964
18	0xbd90bc4b	-0.07067164
19	0x3d2f9979	0.042870972
20	0x3c177537	0.009244255
21	0x3d48a6ff	0.048987385
22	0x3d15f420	0.03660977
23	0xbc2d6913	-0.010584134
24	0xbd4d865d	-0.050176967
25	0x3d38b3a2	0.045093186
26	0xbd3b963d	-0.045797575
27	0xbe70fa5d	-0.23533006
28	0xbd4a6204	-0.04940988
29	0xbd255b4d	-0.040370274
30	0xbd894af8	-0.06703752
31	0xbd8208aa	-0.06349309
32	0xbe593783	-0.21212582
33	0xbd81c35c	-0.0633609
34	0xbea78277	-0.32716724
35	0x3b01c3f5	0.0019800637
36	0xbdd9b141	-0.106295116
37	0xbcd6b684	-0.026210077
38	0x3d19494b	0.037423413
39	0x3d4b0fca	0.049575604
40	0xbd43b444	-0.047779337
41	0x3c705fda	0.01467129
42	0x3da78f84	0.0818167
43	0xbca7a894	-0.020466127
44	0xbc8fb100	-0.017540455
45	0x3d5966cf	0.05307656
46	0xbd687d8e	-0.056760363
47	0xbd36c492	-0.044621058
48	0x3da184a8	0.0788663
49	0x3cf8193e	0.030285474
50	0xb8d67fef	-0.00010228145
51	0xbd22330b	-0.03959946
52	0xbce6c009	-0.028167741
53	0xbdd4b5de	-0.10386251
54	0xbdbbf8e9	-0.09178335
55	0xbdb4d949	-0.08830506
56	0xbd03cf10	-0.032179892
57	0xbde34edf	-0.11099028
58	0xbdb505ef	-0.08839022
59	0xbd9e2396	-0.07721631
60	0xbc8eecd2	-0.01744691
61	0xbdd0918c	-0.10184011
62	0xbc034581	-0.0080121765
63	0x3c8213c3	0.015878564
64	0xbe5526ae	-0.20815536
65	0x3d9875e6	0.07444362
66	0xbd9da27f	-0.07697009
67	0xbeb31a4c	-0.34981
68	0x3dac5b49	0.08415849
69	0x3c9897da	0.018627096
70	0x3e00f88c	0.12594813
71	0x3cd694e8	0.02619405
72	0x3dcc5730	0.09977567
73	0xbe6c0ce5	-0.23051794
74	0x3d6c8f7d	0.05775403
75	0xbd36d2eb	-0.04463474
76	0x3db48da3	0.088160776
77	0xbe2647ac	-0.16238278
78	0xbd97f79b	-0.07420274
79	0xba825def	-0.0009946207
80	0xc02880bc	-2.6328573
81	0xbbd0bf78	-0.006370481
82	0xbc9c7e6c	-0.019103251
83	0xbd78a675	-0.06070562
84	0xbe74ac4f	-0.23893856
85	0xbe0ff5db	-0.1405863
86	0xbc04cce8	-0.008105494
87	0x3d46f414	0.048572615
88	0x3d65128c	0.05592589
89	0xbe11e3fd	-0.14247127
90	0xbd022044	-0.031769052
91	0xbd2f8e2b	-0.04286019
92	0x3c78d662	0.015187832
93	0x3dc02627	0.09382277
94	0x3c04a116	0.0080950465
95	0xbe103c4a	-0.14085498
96	0x3e04bfa4	0.1296373
97	0xbe90ed46	-0.28306025
98	0xbc6c7869	-0.014433005
99	0x3d2742fe	0.040835373
100	0x3cce3a45	0.02517427
101	0x3d70d47f	0.058796402
102	0xbd09801f	-0.03356945
103	0xbc25707b	-0.010097618
104	0xbbeb9611	-0.00718952
105	0xbd974138	-0.07385486
106	0x3cae7d2a	0.021299917
107	0xbd422adc	-0.047404155
108	0xbe4357d6	-0.19076476
109	0x3c95f609	0.018305795
110	0x3db7a2d3	0.08966603
111	0xbcaba463	-0.02095241
112	0x3e0eafda	0.1393427
113	0xbea7374b	-0.32659373
114	0xbd0d1ac2	-0.034449346
115	0x3ce22e7b	0.027610054
116	0xbe568b0a	-0.20951477
117	0xbe2eeee6	-0.1708332
118	0xbe6afe01	-0.22948457
119	0xbe5228bf	-0.20523356
120	0xbe154828	-0.14578307
121	0xbddd3a72	-0.10802163
122	0x3da2ad2c	0.07943186
123	0xbd96a5af	-0.073558204
124	0x3c90d3e7	0.017679168
125	0xbd92a302	-0.071599975
126	0xbd4c6683	-0.04990245
127	0x3dec22e2	0.11530091
128	0x3d1db40e	0.03850179
129	0x3d61630e	0.055026107
130	0x3d8ae075	0.06781093
131	0x3da925b8	0.082591474
132	0xbda1249e	-0.07868312
133	0xbd66678d	-0.056251097
134	0xbd829ae2	-0.06377198
135	0x3d916994	0.071002156
136	0x3c9077d5	0.017635265
137	0xbcf69d8f	-0.030104427
138	0x3c4786e4	0.0121781565
139	0xbd9e172a	-0.07719262
140	0x3db685d8	0.089122474
141	0xbd9c213d	-0.07623527
142	0x3b81fd07	0.003966931
143	0xbe187b14	-0.148907
144	0xbd0a42cd	-0.033755112
145	0x3c7415d5	0.014897783
146	0x3b6bbcf6	0.0035970784
147	0xbd3ca25c	-0.046053275
148	0xbca27126	-0.019829344
149	0x3d5bb9d0	0.053644
150	0xbcc1f8ea	-0.023678262
151	0xbe0962e9	-0.13416637
152	0x3da06a8e	0.07832824
153	0x3cdc74e1	0.026911201
154	0x39a7d245	0.00032009385
155	0x3db07cf3	0.08617582
156	0xbdd0eca8	-0.102013886
157	0xbe978213	-0.29591426
158	0xbcf9d32d	-0.030496204
159	0xbd6f9223	-0.058488976
160	0x3da274e3	0.079324506
161	0x3d9065d0	0.07050669
162	0xbd1b70e2	-0.03794945
163	0xbd04aec9	-0.03239325
164	0xbd0053d2	-0.031329937
165	0x3d3283a5	0.043582577
166	0x3d5be93d	0.05368923
167	0xbe6849d9	-0.2268442
168	0x3d2fdb09	0.042933498
169	0xbd2215c0	-0.039571524
170	0x3d831d4a	0.06402071
171	0x3dc92bf5	0.09822837
172	0xba7809fe	-0.0009461938
173	0xbe2e2989	-0.17008032
174	0xbba1c812	-0.0049371803
175	0xbbd2c2dd	-0.006431921
176	0x3cf49072	0.029854033
177	0xbc6da42d	-0.014504475
178	0xbd466967	-0.048440363
179	0x3c68e035	0.014213611
180	0xbd2c1974	-0.04201646
181	0xbd361403	-0.04445268
182	0x3d83453b	0.06409689
183	0xbdecd1f2	-0.115634814
184	0xbb50cffa	-0.0031862245
185	0xbda73016	-0.081634685
186	0x3da5f01c	0.08102438
187	0xbdf5f035	-0.120087065
188	0xbd0f841b	-0.035038095
189	0x3d29b400	0.041431427
190	0x3d2e0326	0.04248347
191	0xbd85ee6a	-0.065396145
192	0x3daef1f6	0.08542244
193	0x3dc0d36f	0.09415328
194	0xbd859ad0	-0.06523669
195	0x3b3888b1	0.0028157646
196	0xbd4cf818	-0.05004129
197	0xbe300b2b	-0.1719176
198	0xbcf4329b	-0.029809287
199	0xbc917e88	-0.01776053
200	0x3d580060	0.052734733
201	0xbc08bbdd	-0.008345571
202	0xbcfbc4c5	-0.030733475
203	0xbd2968ca	-0.0413597
204	0x3ce70909	0.02820255
205	0xbe284e64	-0.16436154
206	0x3ccb5938	0.024822816
207	0xbd1048e5	-0.035225768
208	0xbd969c10	-0.07353985
209	0x3cfce3f7	0.03087042
210	0x3b95ec75	0.004575307
211	0x3d78c86c	0.060738012
212	0xbe05e37d	-0.13075061
213	0xbc9863c5	-0.018602261
214	0x3d10544d	0.035236645
215	0xbe3fc048	-0.18725693
216	0xbce3e5f3	-0.02781961
217	0xbdeb9bf8	-0.11504358
218	0xbdf4b4fb	-0.11948582
219	0xbd15fee7	-0.036620047
220	0x3dc0852c	0.094004005
221	0xbd89f701	-0.067365654
222	0x3d156fbb	0.036483508
223	0x3d1dcc57	0.03852495
224	0xbe1b36cf	-0.15157627
225	0xbcae8d3a	-0.021307576
226	0xbce3ab7f	-0.027791737
227	0x3cee3758	0.029079124
228	0xbe3e655f	-0.18593358
229	0xbd6f2b5b	-0.058390956
230	0x3d96e339	0.07367558
231	0xc0264eba	-2.598555
232	0xbd7a26ad	-0.06107204
233	0x3d5a3084	0.053268924
234	0xbdaa38c5	-0.08311609
235	0xbddc0431	-0.10742987
236	0xbe69f8e9	-0.22848858
237	0x3d5cf8cd	0.053948212
238	0x3c87e3ca	0.01658811
239	0x3ab24ac0	0.00136026
240	0xbdb489b7	-0.088153295
241	0xbd068f11	-0.032851283
242	0x3d77e95c	0.060525283
243	0x3de56b00	0.11202049
244	0xbd544624	-0.051824704
245	0xbd60f221	-0.054918412
246	0xbdd807d8	-0.10548371
247	0xbc85bd19	-0.01632552
248	0xbdbc92eb	-0.0920771
249	0x3d747ce3	0.059689414
250	0x3d186ba0	0.037212014
251	0xbbe6284d	-0.007023847
252	0x3d86b63e	0.06577729
253	0xbda41881	-0.08012486
254	0xbc98e5fb	-0.01866435
255	0xbe3392dd	-0.17536493

l4.bias f4 [62]
0	0x3c81e54c	0.015856408
1	0x3d892448	0.06696373
2	0xbc081995	-0.0083068805
3	0xbd484ea4	-0.048903123
4	0x3d8ad006	0.067779586
5	0xbc7517dd	-0.014959303
6	0x3cda2524	0.026629038
7	0x3d8c6846	0.06855826
8	0x3c0d60cc	0.008629035
9	0x3cf1051c	0.029421382
10	0xbd424a61	-0.047434215
11	0x3d3556ef	0.04427236
12	0x3d467d50	0.04845935
13	0xbda5b3d2	-0.08090939
14	0xbd7862b0	-0.06064099
15	0xbd1f190b	-0.038842242
16	0xbd9b085c	-0.07569954
17	0x3a12704c	0.00055861915
18	0xbd64c2a0	-0.05584967
19	0x3d3ba313	0.045809817
20	0x3c16d966	0.009207105
21	0x3aac504b	0.0013146488
22	0x3d882514	0.06647697
23	0xbd10d583	-0.03535987
24	0xbc244b6b	-0.010027747
25	0x3d89e4a4	0.06733063
26	0xbdda5896	-0.10661428
27	0x3c178615	0.009248276
28	0x3d6c6aa8	0.057718903
29	0xbb79255e	-0.0038016657
30	0x3d68df0f	0.05685335
31	0xbd52af0a	-0.05143646
32	0xbd079255	-0.033098537
33	0x3b553cbb	0.003253742
34	0x3d3867fe	0.04502105
35	0xbd278a78	-0.04090354
36	0xbca75618	-0.020426795
37	0xbd8fede9	-0.070278
38	0xbd4b64d2	-0.049656697
39	0xbcc236a5	-0.023707697
40	0xbcb2b01d	-0.021812493
41	0xbdb32f8e	-0.08749305
42	0xbdbd96ed	-0.092573024
43	0x3d6ddada	0.05807004
44	0x3c2a6082	0.010398986
45	0x3caf401f	0.02139288
46	0xbd6be2be	-0.057589285
47	0x3bc47e58	0.0059965067
48	0xbd4b3e48	-0.049619943
49	0x3c6dbe5a	0.014510715
50	0xbceba34d	-0.028764391
51	0x3d81d947	0.063402705
52	0xbc9cacc3	-0.019125348
53	0x3c22d7bd	0.009939131
54	0x3d82116c	0.06350979
55	0xbd72a2f5	-0.05923744
56	0xbd686d8f	-0.05674511
57	0xbd1d5dc0	-0.038419485
58	0x3cc640ae	0.024200764
59	0xbd4d791b	-0.050164323
60	0xbc865484	-0.016397722
61	0x3ba8c2c6	0.005150172
